CNNRNN_model.pt (torch, 43607 bytes, 5 tensors)

fc1.weight f4 [64, 96]
00000000: dce6 18bd 3a40 363f 2b4e 563f 0258 ca3e
00000010: bdba 2cbd c98d 973e d0f1 56bf 7cb4 b2bd
00000020: a9c9 0fbf 2065 42bf 2002 2bbf f9b2 2bbf
00000030: ba21 a7be 448d c23e 0158 193f 5c63 273f
00000040: fca6 0c3e abbf 473f 20fb 58bf 1fe6 243e
00000050: 9b8f 3cbf 1c68 23bf 1e25 1abf 1747 28bf
00000060: 65f6 35bf 7b63 1ebf 2f08 34bf 3cc7 2fbf
00000070: 4f54 38bf 894e 32bf f14b 42bf 7116 1fbf
00000080: 4040 1fbf 20fa 23bf 817f 1cbf cca4 1ebf
00000090: efdc 2ebf f8f5 2cbf ca96 2dbf 9d6e 21bf
000000a0: b1c3 1dbf c5ed 1bbf e7a5 1fbf c8ad 34bf
000000b0: 563f 2dbf 17d2 2dbf b044 1abf 3ca6 25bf
000000c0: 6829 10bf 88f0 1abf 67ce 3ebf 8d4a 21bf
000000d0: 33da b6be eaae babe f326 eabe a4b6 d7be
000000e0: e6ea 43bf 40f2 33bf 4d08 1dbf 321b 41bf
000000f0: 9678 0a3f e202 3abf 48e6 f33e ca0a 29bf
00000100: 3825 313f 6179 e2be 8927 0cbf 74a2 f3be
00000110: 9c85 39bf 9b15 12bf 3e35 2bbf eb44 42bf
00000120: cc08 24bf 5a8e 1ebf edf8 34bf 3681 2cbf
00000130: 1134 1dbf 8ddb 38bf 758b 36bf 68a7 2abf
00000140: 1636 36bf 7dc7 a83e 64e7 4cbf fa4d 1bbf
00000150: dff4 ccbe 1c7b 08bf f2cb 04bf be64 06bf
00000160: 1b13 31bf e728 32bf eb21 2dbf a948 41bf
00000170: 185e 1dbf 4231 19bf a4c1 d8be 315f 17bf
00000180: 05ed 3a3f 7986 b43e 0ebe f03e b0c9 0e3f
00000190: b129 07bf 036b ffbe 04fc eabe 4086 04bf
000001a0: bf82 f2be fd54 f0be cc0d babe f2c3 ebbe
000001b0: be5a 023f d1e4 15bf c8d8 323f 6334 0c3f
000001c0: 724e c2be fcb3 383f 17b5 06bf f44d fbbe
000001d0: f0a1 c4be b099 0dbf 06fe 0abf 08e6 05bf
000001e0: ebf4 d7be 827b fdbe 2c62 0bbf 12e8 d3be
000001f0: a4d4 cdbe 73a2 d4be fe76 0abf 1853 b5be
00000200: 7f8d ecbe 312a 0dbf 877c f0be ca67 c6be
00000210: 3aee cfbe 3184 e8be 8326 c3be 61d8 0bbf
00000220: 1de5 c3be ed45 b4be 5df7 03bf e1f8 dcbe
00000230: 956c f0be 9c5e 0abf 48b6 e8be 8618 fabe
00000240: 26e2 0abf c8b4 3abf 1116 e7be eaee b7be
00000250: f0f5 d6be 6056 06bf 2a2c c5be eef7 25bf
00000260: 048c 0dbf cdb1 e5be d49c c6be c68f 03bf
00000270: 616d e6be dedb ffbe 4108 08bf 7d3d 03bf
00000280: 3e9a ed3e e3c3 043f 7403 de3e 597e b73e
00000290: 7d9f e8be be00 0bbf b5f5 e5be 08ef c1be
000002a0: b25c d1be 4808 04bf b6a4 f3be 194c d3be
000002b0: c470 d9be 4290 0cbf 7d5e 03bf 0b94 fabe
000002c0: 75f9 d4be 4390 b9be 89ea d0be acac d4be
000002d0: cd2d 3ebf bc39 17bf f59f 1ebf e36d 30bf
000002e0: d9b8 00bf 67dc d9be 5562 02bf 96df d3be
000002f0: 406f c0be 9caf 05bf 3cfa 04bf 48c5 febe
00000300: 2ee4 2fbf e6b0 163f 90f0 293f 1713 233f
00000310: fc38 113f 1376 163f 3f0d 25bf 6794 043f
00000320: 4ddf 20bf 10f0 17bf b5fd 26bf ba50 2dbf
00000330: 5512 12bf f98d 1d3f d9a4 1fbf 18e1 203f
00000340: 83a2 313f 2ae8 1a3f 7404 2bbf 47da 313f
00000350: 44f0 06bf 173c 1cbf 008b 25bf f8c3 24bf
00000360: 31f5 02bf 8d17 0cbf 572d 27bf b6b2 18bf
00000370: b761 14bf 82d5 12bf 1738 1bbf 616a 27bf
00000380: 6d8b 1abf 58f5 20bf 2483 22bf 70b1 26bf
00000390: ed68 26bf 810d 26bf fe71 0fbf 96d4 2fbf
000003a0: 7497 32bf b164 03bf 685c 10bf 214a 0bbf
000003b0: f357 0ebf f8b4 23bf 8f26 2abf 218d 2bbf
000003c0: be63 1bbf ae42 13bf 2437 32bf 5fcd 2dbf
000003d0: a708 0bbf 0564 16bf d681 08bf ef77 02bf
000003e0: a2db 09bf 294b 1fbf c25d 25bf f258 12bf
000003f0: a5fe 2e3f 30ca 32bf f1c0 203f ebe1 2dbf
-0.03732954 0.7119175 0.83713025 0.3952027 -0.042170275 0.2960036 -0.83962727 -0.08725831
-0.56167084 -0.75935555 -0.6680012 -0.67069966 -0.3264292 0.37998402 0.5989991 0.65385985
0.13735574 0.7802684 -0.84758186 0.16103409 -0.73656625 -0.63830733 -0.60212886 -0.65733474
-0.71079093 -0.61870545 -0.7032499 -0.6866338 -0.72003645 -0.69651085 -0.7589713 -0.6214362
-0.6220741 -0.64053535 -0.61132056 -0.6197021 -0.6830587 -0.6756282 -0.6780821 -0.6305941
-0.61626726 -0.6090968 -0.6236252 -0.7057767 -0.6767477 -0.67898697 -0.6026106 -0.6470678
-0.5631318 -0.6052327 -0.74533695 -0.6300438 -0.35713348 -0.36461574 -0.4573284 -0.4213153
-0.765303 -0.7029152 -0.6134079 -0.7543212 0.5409025 -0.7266065 0.47636628 -0.6603209
0.69197416 -0.4423323 -0.54747826 -0.4758488 -0.72469497 -0.5706422 -0.66878116 -0.7588641
-0.6407592 -0.6193596 -0.7069233 -0.6738466 -0.6140757 -0.7221001 -0.71306545 -0.6666169
-0.7117628 0.32964697 -0.80040574 -0.6066586 -0.40030572 -0.5331285 -0.51873696 -0.5249747
-0.6916978 -0.6959366 -0.6762988 -0.75501496 -0.614717 -0.59840786 -0.42335236 -0.59129626
0.73017913 0.35258844 0.4702 0.557765 -0.5279799 -0.4988633 -0.45895398 -0.5176735
-0.47365376 -0.4693984 -0.3633865 -0.46047932 0.5091971 -0.5855227 0.6986203 0.54767436
-0.37950474 0.72149634 -0.5262007 -0.4908291 -0.38404799 -0.55312634 -0.5429386 -0.52304125
-0.42179045 -0.4950829 -0.54446673 -0.41387993 -0.40201294 -0.4153019 -0.5408782 -0.35414958
-0.46201703 -0.55142504 -0.46970007 -0.3875106 -0.4061144 -0.45413354 -0.3811532 -0.54627043
-0.38260737 -0.352096 -0.5154932 -0.4315863 -0.46957842 -0.5405061 -0.4545157 -0.48846835
-0.54251325 -0.729321 -0.45134023 -0.35924464 -0.4198451 -0.5247555 -0.38510257 -0.64831436
-0.5529177 -0.44862214 -0.38791525 -0.51391256 -0.45005324 -0.49972433 -0.53137594 -0.512657
0.4640674 0.518614 0.4336201 0.35838583 -0.4543418 -0.5429801 -0.44914022 -0.3787768
-0.40891033 -0.51575136 -0.47586602 -0.41268995 -0.42468846 -0.5490762 -0.5131605 -0.48941073
-0.4159657 -0.36242875 -0.40803936 -0.41537988 -0.74288636 -0.5907247 -0.61962825 -0.68917674
-0.50282055 -0.42550966 -0.5093129 -0.4138152 -0.37584877 -0.52221084 -0.5194433 -0.4975989
-0.6870755 0.58863676 0.66382694 0.63701004 0.56727576 0.58773917 -0.64473337 0.51788944
-0.6284073 -0.5935068 -0.65230876 -0.67701304 -0.5705922 0.6154476 -0.6236091 0.62843466
0.693886 0.60510504 -0.6680367 0.6947369 -0.52710366 -0.6102919 -0.6466522 -0.64361525
-0.5115538 -0.54723436 -0.6530356 -0.5964769 -0.579616 -0.5735704 -0.6063246 -0.65396696
-0.60368997 -0.62874365 -0.63481355 -0.651145 -0.65003854 -0.64864355 -0.56033313 -0.68683755
-0.6976235 -0.5132552 -0.56391 -0.54409987 -0.5560295 -0.6394801 -0.66465086 -0.6701222
-0.6069907 -0.5752362 -0.6961539 -0.67891496 -0.5431008 -0.5874637 -0.53323114 -0.50964254
-0.5385076 -0.6222406 -0.6459619 -0.5716697 0.68357307 -0.69839764 0.62794405 -0.6792285

fc1.bias f4 [64]
00000000: 23a4 1cbf b04c fdbe d6d5 2cbf ae06 1abf
00000010: 7cbc 15bf 25fe 05bf 745f 2abf 20fa 2ebf
00000020: 4ac5 0cbd e609 dbbe a8ed 33bf f4e8 fdbe
00000030: 18dd 22bf 0989 0ebf 7e45 dfbe 6322 babe
00000040: 8a5a c4be 399b 0abf 07fe 12bf 7b33 0abf
00000050: 43c3 c0bd 2863 11bd 1a9e b3be 1e10 e1be
00000060: 01a8 3bbf 604d 31bf 0d4b c0be 1e82 05bf
00000070: 97f1 02bf ade6 c0be e716 10bf a30d 02bf
00000080: afbd 11bf ddeb 26bf 076d f6be 9da5 d5bc
00000090: f3e2 bfbe 1f80 343d e757 0ebf ef1a dabe
000000a0: 2bcb c1be 46c4 f6be 6c19 1abf 80d7 ac3d
000000b0: d813 0abf 91c2 d9be 0bd5 00bf 6284 f5be
000000c0: 244f ddbe c6c9 03bf dfe7 0dbf b4f7 29bf
000000d0: 2649 2cbf e20a d4be 96d0 00bf 79f3 0ebf
000000e0: 4c5b 09bf dc07 febe 87d8 32bf 85ac 00bf
000000f0: bcf8 6ebd 809f 05bf 412a 25bf c30f 07bf
-0.6118795 -0.4947257 -0.6751379 -0.6016644 -0.5849073 -0.5234092 -0.665519 -0.6835041
-0.034367837 -0.4278099 -0.7028451 -0.49591792 -0.6361861 -0.5567785 -0.43607706 -0.3635436
-0.38350326 -0.541431 -0.57418865 -0.539848 -0.09412243 -0.035494953 -0.3508156 -0.4395761
-0.7330323 -0.6925869 -0.3755726 -0.5215167 -0.51149887 -0.37675992 -0.56284946 -0.5080206
-0.5693006 -0.6520365 -0.48130056 -0.026079947 -0.37477836 0.0440675 -0.5560288 -0.42598674
-0.37850317 -0.4819662 -0.6019504 0.08439541 -0.5393653 -0.42531255 -0.5032508 -0.47952563
-0.43224442 -0.51479757 -0.5543193 -0.6639359 -0.67299116 -0.41414553 -0.50318277 -0.5584026
-0.5365493 -0.4961537 -0.69861645 -0.50263244 -0.05834268 -0.521965 -0.645176 -0.52758425

fc2.weight f4 [64, 64]
00000000: ebef e9be 2fc3 d3be 27cf 053f 6a06 f63e
00000010: 83e7 243f f20f 083f 517e 223f e846 173f
00000020: 80f5 e03c 464e e8be 9eda fcbe 062b 0dbf
00000030: f1b9 2f3f b5e2 283f 83b2 e0be 9455 b2be
00000040: 9fc7 aabe 12c2 0dbf 50d1 293f 112a acbe
00000050: 8002 e4bb 9a64 f2bd 3d6a febe c31b e1be
00000060: bac8 f3be c41c 293f 1a44 cfbe 5699 f63e
00000070: a33b e0be 21ae dcbe 312c 2e3f 4a7a dcbe
00000080: fc28 2b3f 771e dcbe 6735 09bf f492 c6bd
00000090: 2756 fdbe 00b2 0a3a eb0e 073f 731f 10bf
000000a0: ff65 b0be 2383 e1be 6618 263f fa0e 82bd
000000b0: c006 1f3f 9904 ecbe 8ea9 c6be 9069 ffbe
000000c0: 00b3 aebe 5ed5 e3be 7a14 1b3f 5032 303f
000000d0: 1db4 183f 81b2 d5be d992 ecbe c430 b7be
000000e0: b542 f53e be20 abbe eb3d 05bf 1c6f a9be
000000f0: 9462 2d3d 6389 07bf afcd fc3e f9c7 d6be
00000100: 6550 01bf c02d 24bf be18 a33d 70bb 69bd
00000110: d259 ca3d e83f a73c 9cae dbbd 1030 a43c
00000120: 8c9d 07bd bcd7 05bf 346b 40bd 888b e4be
00000130: 2cf5 91bd b24c d23d fb09 2ebf e645 eebe
00000140: 0a57 24bf 195f 08bf 7464 02bd df28 2ebf
00000150: bc37 c93d 70b7 f23c 4006 f9be 269f 1dbf
00000160: 6a33 18bf 40f4 6bbd 15d8 2bbf f8a5 df3c
00000170: 0fa8 02bf 7930 12bf 988e a6bd a97a 0abf
00000180: f86c 5b3d 0b46 0bbf 340d 2ebf 2ce3 7a3d
00000190: c90c eebe f860 27bd 60f6 debc 4f9b 0dbf
000001a0: d9ca 07bf 81d7 e3be 40de b63d 0c83 643d
000001b0: a0b8 a8bd 2a3c f6be 3d69 fdbe f0a6 e0be
000001c0: b8b0 1abf 5e06 03bf 7af5 a83d 3cc8 6f3d
000001d0: 3056 4cbc a181 17bf 9f2c 14bf 67f6 f8be
000001e0: b4b2 21bd 8c1b 2ebf 2a76 13bf a3b3 2bbf
000001f0: 48bc c8bd 4864 e5be 7023 a1bd f675 f7be
00000200: 254e 06bf 23a6 13bf 2975 1a3f c130 2a3f
00000210: df3a 1b3f 611e 2c3f 4270 183f 7bf2 023f
00000220: a47b 9c3d edfd dcbe 5638 06bf e067 efbe
00000230: 5309 253f ae01 133f cbc4 eabe dcd7 d8be
00000240: b60d d2be b88b c3be b0a0 113f d379 d4be
00000250: e887 f13c 9877 44bd f4e4 ddbe 206d e5be
00000260: cc2b 0bbf 5ff8 f93e 84ae b0be 1d1d 0b3f
00000270: 3c2a babe c695 dabe 6bde 2b3f 0205 efbe
00000280: 21fd 123f ec7f 00bf 2a8d 12bf 000a e7b9
00000290: 3002 b2be b0e2 cd3c 0310 0f3f 1a5c 08bf
000002a0: ebc8 f6be 42bc 01bf 8c51 2d3f c85a 673d
000002b0: 2502 223f 613d debe fb37 e6be 8e09 05bf
000002c0: a0d5 efbe efde bebe 8ea9 153f dcc4 243f
000002d0: f64b 153f c9ac ccbe e6ca 0ebf 7c90 c7be
000002e0: 0ed3 1f3f be22 cabe 67b3 b2be cf33 eabe
000002f0: ce2c af3d a514 cfbe 9118 0d3f fae1 0abf
00000300: 9732 b3be 4650 00bf 44b1 153d 354d 1d3f
00000310: cc77 30bd 60ab 243f f1bd 083f 548d 183f
00000320: 48bc a53c 5fe2 e4be 8644 f6be 31ce 26bf
00000330: 7e9e fa3e 10af 013f 3f35 11bf 6c2b 2dbf
00000340: 1f3d 00bf 654a ffbe 8886 9a3d 640e 02bf
00000350: d060 6dbd 0404 3dbd f572 bbbe 7b3f 0cbf
00000360: e719 d8be 491b 0c3f b7e4 22bf 9c25 62bd
00000370: d02b e8be 0cee eebe e74a 283f 1085 b1be
00000380: 900d 37bc f486 dabe 419b f8be 7ae0 be3d
00000390: 6e08 01bf d49b 6e3d 7298 1f3f cce4 b8be
000003a0: efa5 b3be d587 0bbf b4a4 babd 008e 03bb
000003b0: 00ec fc3b 07ba 02bf c40d ebbe 4ea6 f0be
000003c0: 8e26 c1be 6f11 ffbe cde4 fc3e 61c7 243f
000003d0: 66be f73e f964 fbbe b246 14bf ba9a 1bbf
000003e0: ac97 153f 099e 08bf 2556 b4be 5594 d6be
000003f0: 50bf 143d 40d3 22bf 8846 81bd aab2 1ebf
-0.45690855 -0.4135985 0.52269214 0.4805177 0.6441576 0.5314933 0.63473994 0.5909257
0.027460814 -0.45372218 -0.49385542 -0.55143774 0.686431 0.6597093 -0.43886194 -0.34830916
-0.33355424 -0.5537425 0.6633501 -0.33625844 -0.006958306 -0.118355945 -0.49690428 -0.43966493
-0.4761408 0.6605952 -0.40481645 0.4816386 -0.437955 -0.431016 0.6803618 -0.4306205
0.6685941 -0.42991993 -0.5359711 -0.09695998 -0.49479792 0.00052908063 0.5275714 -0.5629799
-0.34452817 -0.44045362 0.6488098 -0.06350513 0.62119675 -0.46097258 -0.38801235 -0.49885225
-0.3412094 -0.44498724 0.6057812 0.6882677 0.5964983 -0.4173775 -0.46205786 -0.35779393
0.47902456 -0.33423418 -0.52047604 -0.33092582 0.04233034 -0.5294401 0.49375674 -0.41949442
-0.505133 -0.6413231 0.079637036 -0.05706352 0.09880413 0.020416215 -0.107266635 0.02004245
-0.033109233 -0.5228231 -0.046977237 -0.44637704 -0.07126841 0.10268535 -0.6798398 -0.46537703
-0.6419531 -0.5327011 -0.03183408 -0.68031114 0.098250836 0.029628485 -0.4863758 -0.61570966
-0.5945345 -0.05760598 -0.6712659 0.02730082 -0.5103769 -0.57105213 -0.08132666 -0.54093415
0.053570718 -0.5440375 -0.67988896 0.061251804 -0.4649413 -0.04086396 -0.02721709 -0.5531511
-0.53043896 -0.44500354 0.089291096 0.05578904 -0.082383394 -0.48092777 -0.49494353 -0.43877363
-0.604259 -0.5118159 0.08249946 0.058540568 -0.012471721 -0.59182173 -0.57880586 -0.4862549
-0.039477065 -0.68010783 -0.5760218 -0.6707098 -0.09801537 -0.4480307 -0.07868087 -0.48332185
-0.5246299 -0.5767538 0.6033502 0.6648064 0.60636705 0.67233855 0.5954629 0.51151246
0.0764077 -0.4316248 -0.5242971 -0.46758938 0.6446735 0.5742444 -0.45853266 -0.42352188
-0.41026086 -0.38192534 0.56885815 -0.41499195 0.02948375 -0.047965616 -0.4333874 -0.44809818
-0.54363704 0.48822305 -0.34508145 0.543413 -0.36360347 -0.42692393 0.6713626 -0.46683508
0.57417494 -0.50195193 -0.5724665 -0.00044067204 -0.34767294 0.025132507 0.55883807 -0.53265536
-0.48200163 -0.50677884 0.67702556 0.05648306 0.6328452 -0.43406203 -0.44964585 -0.51967704
-0.4684267 -0.3727946 0.58461845 0.64362884 0.5831903 -0.39975575 -0.5577835 -0.3897742
0.6243142 -0.3947963 -0.34902498 -0.45742652 0.08553468 -0.40445438 0.5511561 -0.5425106
-0.34999534 -0.5012249 0.036546007 0.61445934 -0.043082997 0.64324 0.5341483 0.5959065
0.020231381 -0.44703957 -0.48099154 -0.65158373 0.48949045 0.5065775 -0.5672187 -0.6764438
-0.50093263 -0.49861446 0.07545191 -0.5080321 -0.057953656 -0.046146408 -0.36611143 -0.54784364
-0.42207262 0.54729134 -0.6363024 -0.05521165 -0.45345926 -0.4666599 0.6573929 -0.3467183
-0.011172667 -0.42681086 -0.4855595 0.09320159 -0.5040349 0.058254078 0.6234199 -0.36112058
-0.35087535 -0.5450414 -0.09113446 -0.0020073652 0.007718563 -0.51065105 -0.4590894 -0.4700188
-0.37724727 -0.49817988 0.4939331 0.6436673 0.4838745 -0.49100474 -0.5792037 -0.6078297
0.5843456 -0.5336614 -0.35221973 -0.41910043 0.036315262 -0.6360359 -0.06312281 -0.6199137

fc2.bias f4 [64]
00000000: a7db f4be cc0c 13bf 8b75 b8be c24f bdbe
00000010: 9bce ecbe 0fb5 07bf ee41 ccbe 795b 07bf
00000020: 5cd5 09bf 19cf 2dbf 73a0 05bf 8e7e e4be
00000030: 1fb7 c4be 1ef0 07bf b01e a7be 1236 b9be
00000040: 3d65 11bf de57 0abf ec17 02bf ce1d 12bf
00000050: 4784 ddbe 042e 04bf 5b2c 19bf 286d d3bd
00000060: 7146 20bf b856 0bbf 8d26 cbbe 2019 c4be
00000070: b260 b8be 0c70 83be 49ca afbe 2b49 b0be
00000080: e65a 09bf 87fb 06bf 80d4 febe 6bc4 0cbf
00000090: a370 dabe 0d44 d0be d545 17bf 8070 d6be
000000a0: 2b8b 1fbf 8437 1ebf 5c0a babe 83e5 28bf
000000b0: be80 34bf 7bac 2bbf d183 1abf d0dd b4bd
000000c0: 087a 09bf d046 1cbf f5f1 1fbf 8dfb 16bf
000000d0: ccf9 ffbe 3e3a bcbe 01a8 36bf 1490 c9be
000000e0: a3f1 10bf 22fa 04bf 8ba0 d7be 959c ccbe
000000f0: c567 c3be 57c1 12bf 229b 0bbf 9f1d 28bf
-0.4782383 -0.574414 -0.36027178 -0.36974913 -0.46251377 -0.5301065 -0.3989405 -0.5287395
-0.53841186 -0.6789413 -0.5219795 -0.44627804 -0.3842096 -0.53100765 -0.326406 -0.36174065
-0.567951 -0.54040325 -0.5081775 -0.5707673 -0.43264982 -0.51632714 -0.59833306 -0.10323554
-0.62607485 -0.544292 -0.3967785 -0.3830042 -0.36011273 -0.25671422 -0.3433402 -0.34430823
-0.53654325 -0.5272755 -0.497715 -0.5498721 -0.4266406 -0.4067692 -0.5909093 -0.41882706
-0.6232173 -0.6180346 -0.3633603 -0.6597521 -0.70508945 -0.6706006 -0.60357386 -0.0883137
-0.5370183 -0.6104555 -0.6247857 -0.58977586 -0.49995267 -0.36763185 -0.71350104 -0.39367735
-0.5661871 -0.5194417 -0.42114672 -0.39963213 -0.38165107 -0.57326263 -0.5453359 -0.656702

fc5.weight f4 [1, 64]
00000000: d0b7 c83e f19d 003f 0079 d73e eb9c c53e
00000010: c67e de3e 619b 12bf ceec d53e 5e12 dd3e
00000020: 225a ed3e 84d4 06bf 86fa de3e 17dc e53e
00000030: 90e1 e43e 4c54 bb3e 2e44 ad3e c82e d43e
00000040: 9e95 06bf 733c 15bf aeb6 0dbf a4ae fa3e
00000050: 5a11 c03e c0c0 02bf 9c78 07bf 701b 183c
00000060: 4e15 ef3e 9993 03bf 3497 d83e bc55 dd3e
00000070: aef0 d53e 0f78 a83e 8b85 d03e 0661 d23e
00000080: 7277 cf3e 9fd8 15bf 5c49 d73e 7ded fdbe
00000090: f025 c73e aff4 ca3e 9fd4 17bf faa8 b33e
000000a0: cfa3 02bf 48e7 0ebf d479 ce3e 7aca 0fbf
000000b0: a540 0abf a837 05bf 0a6a 033f 5c4c ac3d
000000c0: b42f 05bf d9bd fbbe 107e 09bf 2515 1fbf
000000d0: 28ff c53e 3473 bd3e da9c ffbe 0e2f e83e
000000e0: e625 febe 2b99 18bf 76e3 e33e b157 e13e
000000f0: 9d60 d83e e88d 07bf 3658 de3e 7abc 06bf
0.39202738 0.50241 0.42084503 0.3859628 0.43456095 -0.5726834 0.4178223 0.43178076
0.46357828 -0.52668023 0.4355051 0.44894478 0.4470334 0.3658775 0.3384108 0.4144194
-0.5257205 -0.58295363 -0.5535687 0.48961365 0.37513238 -0.51075363 -0.5291841 0.009283885
0.46695942 -0.5139709 0.4230286 0.43229473 0.41785187 0.32904097 0.40726885 0.41089648
0.40520817 -0.5853366 0.42048156 -0.49595252 0.38896132 0.39639804 -0.5930881 0.35089856
-0.510312 -0.5582166 0.40327322 -0.5616833 -0.5400489 -0.5203805 0.5133368 0.08413002
-0.52025914 -0.4916828 -0.5370798 -0.6214164 0.3867123 0.37001956 -0.49924356 0.453484
-0.4963829 -0.59608716 0.44509476 0.44012216 0.4226121 -0.52950907 0.43426675 -0.5263134
