lstm_model.pt (torch, 43607 bytes, 5 tensors)

fc1.weight f4 [64, 96]
000000 aa 52 1d 3f 7d d3 06 3f 3d 6b 0a 3f 85 76 1a 3f
       0.6145426 0.52666456 0.5406988 0.60337096
000010 a9 85 1a bf 33 bb 18 bf ab be 21 bf 45 79 1c bf
       -0.603602 -0.59660643 -0.6318156 -0.6112254
000020 32 dd 12 bf df 8f 0f bf a0 f0 08 bf 43 41 04 bf
       -0.5736877 -0.56078905 -0.53492165 -0.5166208
000030 d8 d5 25 3f 27 f5 16 3f 98 65 03 3f fb a9 2f 3f
       0.64779425 0.5896782 0.51326895 0.68618745
000040 13 eb 0a bf dc 18 01 bf cc b2 14 bf 30 57 20 3f
       -0.54264945 -0.5042856 -0.5808532 0.6263304
000050 75 ea 10 bf 3a 5e 05 bf e6 21 09 bf f1 eb 0d bf
       -0.56607753 -0.52096903 -0.5356735 -0.55438143
000060 19 9e 1e bf a3 fc 26 bf b3 70 15 bf 4f f1 08 bf
       -0.6195999 -0.65229243 -0.5837509 -0.5349321
000070 c4 70 1a bf ad d7 02 bf b3 3d 2b bf df 4c 0b bf
       -0.60328317 -0.51110345 -0.6689102 -0.5441417
000080 71 2a 14 bf f2 25 2b bf 5d bf 0d bf 74 d5 28 bf
       -0.5787726 -0.66854775 -0.5537012 -0.65950704
000090 c1 b9 07 bf 4f 68 0b bf e6 10 31 bf f7 49 0c bf
       -0.5301781 -0.5445604 -0.6916641 -0.5480036
0000a0 71 92 15 bf e9 32 0d bf eb 21 0d bf 2f 8f 1d bf
       -0.58426577 -0.5515581 -0.5512988 -0.61546606
0000b0 16 ef 23 bf c7 15 1f bf 6c f7 22 bf 0f 20 31 bf
       -0.6403669 -0.62142605 -0.63658786 -0.6918954
0000c0 85 c4 0f bf 3e 1c 25 bf bc 48 13 bf 55 60 20 bf
       -0.5615924 -0.6449622 -0.5753286 -0.6264699
0000d0 94 12 07 bf bc d3 17 bf 2e f8 31 bf ce ce 19 bf
       -0.5276272 -0.59307456 -0.6951932 -0.60081184
0000e0 8f a2 1d bf 29 73 27 bf c2 5a 03 bf e2 00 15 bf
       -0.6157617 -0.65410095 -0.5131036 -0.5820447
0000f0 ae d2 21 bf e3 f2 ff 3e 76 f3 01 bf a8 a3 2d bf
       -0.63212097 0.49989995 -0.50762117 -0.67827845
000100 53 2c 1c 3f 6c c6 29 3f f4 f3 2f bf a9 5a 22 3f
       0.61005133 0.6631839 -0.6873162 0.63419586
000110 97 c3 00 bf d7 4f 24 bf ff 8a 22 bf 1c 5a 31 bf
       -0.50298446 -0.64184326 -0.6349334 -0.6927812
000120 3d ad 33 bf e3 fb 20 bf 17 db 05 bf ad 9f 19 bf
       -0.70186216 -0.6288435 -0.5228743 -0.6000927
000130 34 5f 2d bf c8 c7 08 bf cb 02 17 bf 6d 80 01 bf
       -0.67723393 -0.5342984 -0.58988637 -0.5058659
000140 3e 31 33 bf 9c 89 31 bf e1 05 17 bf aa 75 2e bf
       -0.6999701 -0.693506 -0.58993345 -0.6814829
000150 5e 29 30 bf a4 62 07 bf 12 3c 2f bf 48 9e 2e bf
       -0.6881312 -0.5288489 -0.68451035 -0.6821027
000160 dc 29 12 bf 8b 47 11 bf 4a 2d 01 bf 1c 01 22 bf
       -0.5709512 -0.5674979 -0.5045973 -0.6328294
000170 a3 2a 17 bf 8c b2 29 bf 35 f9 13 bf e7 63 15 bf
       -0.59049433 -0.66288066 -0.57802135 -0.58355564
000180 b9 f7 0d 3f 2f 4a 2d 3f 12 37 18 3f aa 83 14 3f
       0.5545612 0.6769132 0.5945903 0.58013403
000190 90 1d 22 bf c5 bd 1e bf 64 67 1d bf 19 18 13 bf
       -0.6332636 -0.62008315 -0.61485887 -0.57458645
0001a0 d2 f7 06 bf 3b d8 18 bf 89 a5 02 bf 54 bf 21 bf
       -0.52721894 -0.5970494 -0.51033837 -0.6318257
0001b0 21 89 24 3f 24 36 32 bf 92 d3 26 3f da 08 20 3f
       0.6427174 -0.6961386 0.6516658 0.62513506
0001c0 ed f5 0f bf cd d7 2e bf 21 9d 04 bf 86 7d 24 bf
       -0.5623463 -0.68298036 -0.5180226 -0.64254034
0001d0 47 e2 1a bf 3b b5 08 bf 55 18 32 bf 40 3e 07 bf
       -0.6050152 -0.53401536 -0.6956838 -0.5282936
0001e0 00 bb 27 bf 6e 39 32 bf 19 86 27 bf 0d 52 2e bf
       -0.65519714 -0.6961888 -0.6543899 -0.6809395
0001f0 e6 91 05 bf d0 3f 0c bf c9 11 2b bf 97 aa 0f bf
       -0.5217575 -0.5478487 -0.66824013 -0.56119674
000200 f4 f4 0d bf 80 7f 18 bf 1a b3 0b bf d0 11 30 bf
       -0.55451894 -0.5956955 -0.5457016 -0.6877718
000210 9f 10 07 bf 4d 79 07 bf 56 32 19 bf 4a d7 1b bf
       -0.52759737 -0.52919465 -0.5984243 -0.6087538
000220 0c 40 1e bf 0c 46 1b bf 16 d2 28 bf 0c 1d 12 bf
       -0.6181648 -0.6065376 -0.65945566 -0.5707557
000230 ac cd 14 bf 21 09 1b bf 0c af ff be 48 e4 1a bf
       -0.5812633 -0.60560805 -0.49938238 -0.6050458
000240 35 53 2e bf d1 1d 17 bf f6 6a 2f bf 48 0f 2f bf
       -0.68095714 -0.5902987 -0.68522584 -0.6838269
000250 68 cd 24 bf 65 a3 2e bf 38 fc 2d bf 8d 69 1f bf
       -0.64375925 -0.6821807 -0.6796298 -0.6227043
000260 e2 91 17 bf 53 20 1b bf 7c ac 15 bf 7e 77 18 bf
       -0.59206975 -0.605962 -0.58466315 -0.5955733
000270 62 87 2f 3f 4c 9e 16 bf 3d f0 17 bf e6 6f 18 bf
       0.6856595 -0.5883529 -0.5935095 -0.59545743
000280 53 49 1a 3f 27 b3 15 3f 5a 35 16 3f 48 68 30 3f
       0.60268134 0.5847649 0.5867516 0.6890912
000290 7d 38 1b bf ae 82 05 bf eb d5 0e bf 2e 79 00 bf
       -0.6063307 -0.52152526 -0.5579516 -0.50184906
0002a0 ae 3f 03 bf e5 00 2d bf a3 48 2c bf ed b2 30 bf
       -0.5126904 -0.6757949 -0.67298335 -0.6902302
0002b0 4d 5b 31 bf d0 e9 1f bf c1 ab 29 bf a3 d3 14 bf
       -0.6927994 -0.62466145 -0.662777 -0.5813543
0002c0 44 24 29 bf df 40 09 bf 08 b1 ff be 6a 3c 0e bf
       -0.6607096 -0.5361461 -0.49939752 -0.55560935
0002d0 29 04 12 bf 3c 6c 32 bf 65 5f 2c bf 24 a3 1f bf
       -0.570376 -0.696964 -0.6733306 -0.6235831
0002e0 fd 23 0d bf c3 b0 15 bf d5 31 12 bf 53 e0 30 bf
       -0.5513304 -0.5847284 -0.5710729 -0.6909229
0002f0 3f a8 06 bf f9 72 2c bf a0 21 0e bf fb 06 09 bf
       -0.52600473 -0.67362934 -0.5552006 -0.53526276
000300 b3 9f 18 3f b2 7a 29 3f 6c ba 24 3f 03 28 18 3f
       0.5961868 0.66202843 0.6434696 0.59436053
000310 c5 dd 32 bf bb 22 2a bf 88 f1 1a bf c0 7a 09 bf
       -0.69869643 -0.66459244 -0.605248 -0.53702927
000320 32 ea 11 bf 63 d2 1b bf 6a c3 26 bf f0 50 0a bf
       -0.5699798 -0.608679 -0.6514193 -0.5402975
000330 40 9c 16 bf 9d 77 2a 3f a0 72 11 bf 7b 18 15 3f
       -0.5883217 0.66588765 -0.5681553 0.5824048
000340 2b 0b 04 bf e0 bb 21 bf c8 5a fe 3e 87 dd 21 3f
       -0.5157954 -0.631773 0.49678636 0.6322865
000350 77 55 2a bf a2 c8 27 bf 76 17 33 bf 02 a9 2f bf
       -0.6653666 -0.65540516 -0.69957674 -0.6861726
000360 41 d9 1d bf 33 6c 29 bf f8 fb 10 bf 74 cc 2a bf
       -0.6165963 -0.66180724 -0.56634474 -0.6671822
000370 8c bd 02 bf a2 39 02 bf 5d 75 1d bf 0b b3 19 bf
       -0.51070476 -0.5086919 -0.6150721 -0.6003882
000380 54 bb 12 bf 6e 42 1b bf 36 83 32 bf b8 38 2c bf
       -0.5731709 -0.6064824 -0.6973146 -0.67274046
000390 e5 e6 23 bf f6 50 0d bf d0 9a 17 bf e4 42 30 bf
       -0.6402419 -0.5520166 -0.592206 -0.68852067
0003a0 2a b7 2f bf d3 a7 05 bf 4b 08 08 bf bb e9 32 bf
       -0.6863886 -0.52209204 -0.53137654 -0.69887894
0003b0 85 af 06 bf ec 8a 22 bf 9c d2 17 bf b7 12 1e bf
       -0.5261157 -0.6349323 -0.5930574 -0.61747307
0003c0 de 4e 22 3f 45 b3 29 3f 64 e8 24 3f 96 53 0c 3f
       0.6340159 0.6628917 0.644171 0.5481504
0003d0 e1 09 23 bf 13 92 1e bf ef 54 09 bf d1 12 26 3f
       -0.6368695 -0.6194164 -0.53645223 0.6487246
0003e0 17 4b 03 bf 75 69 02 bf 14 e3 0c bf b3 5e 0c bf
       -0.51286453 -0.50942165 -0.55033994 -0.54832
0003f0 6d 13 26 bf eb 22 05 3f 4d ec 26 bf 38 63 1c 3f
       -0.6487339 0.52006406 -0.65204316 0.61088896

fc1.bias f4 [64]
000000 b5 f0 14 bf a0 5d 1f bf 21 3d 09 bf 02 45 0b bf
       -0.5817979 -0.62252235 -0.536089 -0.5440217
000010 5f 1a 07 bf c3 d2 50 bd 8f cd 30 bf 73 57 cf be
       -0.52774614 -0.050982248 -0.6906366 -0.40496406
000020 f2 21 20 bf 73 82 5b bd 27 3d 83 bc 90 c2 d3 be
       -0.62551796 -0.053591203 -0.01602037 -0.41359377
000030 43 9e 15 bf 4c 1f 10 bf 7e 8c 20 bf d9 1c ff be
       -0.58444613 -0.56297755 -0.62714374 -0.49826697
000040 82 6d 29 bf 51 0a 0f bf 87 be 01 bf bc 48 04 bf
       -0.6618272 -0.55875117 -0.50681347 -0.51673484
000050 d1 c5 c8 be ec 7f eb be db 25 e8 be 4a bb 2a bf
       -0.39213422 -0.45996034 -0.4534138 -0.6669203
000060 ef 32 b6 be 29 f3 73 bd 98 fa 0a bf 2a e5 2b bf
       -0.35585734 -0.059558067 -0.54288626 -0.6714655
000070 be e6 11 bf 18 47 fd be 45 54 24 bf a2 67 14 bf
       -0.5699271 -0.49468303 -0.64191085 -0.5797063
000080 52 7e d1 be e3 c8 2d bf f7 5c fc be b9 2c e2 be
       -0.40916687 -0.67884654 -0.49289677 -0.44174746
000090 d6 a6 c1 be 92 5c 09 bf 1d 2f fb be 99 7e 3e bf
       -0.37822598 -0.53656876 -0.49059382 -0.7441192
0000a0 87 9e b5 be e6 89 05 bf 33 f6 2d bf dd 89 be be
       -0.3547251 -0.5216354 -0.67953795 -0.37214556
0000b0 41 5f b4 be 32 0e b7 be e0 5c 92 3c b0 b7 c9 be
       -0.35228923 -0.35753018 0.017866552 -0.39397955
0000c0 90 5b 16 bf 08 c8 0e bf c0 fa 32 bf a4 54 30 bd
       -0.58733463 -0.55773973 -0.69913864 -0.04304947
0000d0 60 65 0f bf 12 5b 05 bf 19 c6 18 bf 6a 1a 07 bf
       -0.5601406 -0.5209209 -0.59677273 -0.5277468
0000e0 c9 81 01 bf 11 22 f2 be 68 13 d6 be 1d c5 04 bf
       -0.5058866 -0.47291616 -0.4181168 -0.5186327
0000f0 48 8a 03 bf 2a 9d 14 bf 29 eb f1 be 38 3f 0d bf
       -0.51382875 -0.58052313 -0.47249725 -0.5517459

fc2.weight f4 [64, 64]
000000 64 fa 04 bf f5 bd 14 bf f4 2a 30 bf 3c 7e 38 bf
       -0.51944566 -0.5810235 -0.6881554 -0.7206762
000010 d2 ac 34 bf d8 ae 8b bd d4 e6 38 bf 00 52 39 bf
       -0.705762 -0.06820458 -0.72227216 -0.7239075
000020 f0 bb f5 be 00 d8 90 3a 8c 12 15 bd f0 4c e2 bc
       -0.47994947 0.0011050701 -0.03639464 -0.027624577
000030 d3 c5 08 bf ec 77 d4 bd 0b 07 22 bf 23 e8 34 bf
       -0.53426856 -0.10374436 -0.63291997 -0.7066671
000040 d2 58 05 bf ca 87 09 bf f8 28 0e bf d2 2d 9e 3d
       -0.52088654 -0.5372282 -0.55531263 0.07723583
000050 3a a2 25 bf db 92 2c bf 67 18 20 bf 9b 86 fb be
       -0.64700663 -0.67411584 -0.62537235 -0.49126133
000060 54 b4 28 bf 90 4a d5 bc c7 e3 2b bf 89 fb 04 bf
       -0.6590016 -0.02603653 -0.67144436 -0.5194631
000070 87 61 05 bf 03 19 2b bf 2b 87 12 bf 52 f4 29 bf
       -0.5210194 -0.6683504 -0.572375 -0.6638843
000080 1e 5f b2 bd db ea 18 bf e3 8d 04 bf a7 ba 22 bf
       -0.087095484 -0.5973336 -0.51779 -0.6356606
000090 6a 70 8e bd 46 59 0f bf 07 de 34 bf de 3d 25 bf
       -0.06955035 -0.55995595 -0.70651287 -0.64547527
0000a0 1a ba 31 bf d0 7e 0a bf 12 66 0b bf af bc 35 bf
       -0.69424593 -0.5409975 -0.5445262 -0.70991033
0000b0 6a 88 29 bf e9 cf f8 be 72 37 ea bd 28 42 4e bd
       -0.66223776 -0.48596123 -0.114363566 -0.05035606
0000c0 77 02 01 bf 09 00 ff be f3 12 0c bf 92 63 ba bd
       -0.50394386 -0.49804714 -0.54716414 -0.09101023
0000d0 a2 85 f8 be ab cf 20 bf 0c 51 21 bf cd 48 31 bf
       -0.48539454 -0.62816876 -0.6301429 -0.6925171
0000e0 5c a9 29 bf 30 10 43 bd 71 d4 22 bf c6 ee 2b bf
       -0.66274047 -0.04762286 -0.6360541 -0.67161214
0000f0 c8 db 35 bf 4c 6c f1 bd df 9e 0a bf c6 ec 29 bf
       -0.71038485 -0.11788234 -0.5414867 -0.6637691
000100 9c 8e 2c 3f aa 2d 0e 3f a8 95 a1 3d e0 2a a8 bd
       0.67405105 0.5553843 0.07889873 -0.08211303
000110 b6 8d cf be 40 a4 a9 3b 91 3d f4 3e 12 98 07 bf
       -0.40537804 0.005177051 0.4770322 -0.52966416
000120 70 16 3d 3c ec 0c be 3d c4 71 68 bd 10 88 ff be
       0.011540994 0.092798084 -0.05674912 -0.49908495
000130 4e b4 f6 3d 50 df f3 bc ca d4 03 bf 36 50 08 bf
       0.12046109 -0.02976957 -0.51496565 -0.5324739
000140 b1 16 27 3f 5c d1 d0 3d d8 d7 dd bd 97 aa 14 bf
       0.65269 0.10196182 -0.108321846 -0.580728
000150 fe ef f1 be 82 7d 04 bf 67 9c 04 bf aa d0 05 3f
       -0.47253412 -0.5175401 -0.5180115 0.5227152
000160 c8 e2 de be 00 00 51 37 30 0e 62 bc bb 96 30 3f
       -0.43532395 1.2457371e-05 -0.013797328 0.68979996
000170 46 2a 02 3f 8e 1a b2 be ba 6f a1 3d f0 24 d6 3d
       0.50845754 -0.34785885 0.07882638 0.10456264
000180 6a f2 0e bf 64 15 36 3d 34 eb 02 bf 01 3c df be
       -0.55838645 0.044453993 -0.5114014 -0.43600467
000190 de c9 1c bf b4 30 1c 3f a6 99 cf be d7 d9 cf be
       -0.61245525 0.61011815 -0.40546912 -0.40595886
0001a0 52 cd 00 bf 7a 6e e2 be eb 38 f8 3e 0e 9d 04 bf
       -0.50313294 -0.44224912 0.48480925 -0.51802146
0001b0 4c 03 bc be fb bc fc be c4 55 79 3d 21 a6 13 bf
       -0.36721265 -0.4936293 0.060872808 -0.5767537
0001c0 ce 7f 03 3f 50 a0 df bd 50 15 29 3f 90 44 a6 bd
       0.5136689 -0.10919249 0.66048145 -0.08118546
0001d0 8b 1e 26 3f 65 d7 16 bf ec 59 30 3f 9c 93 8b bd
       0.64890355 -0.58922416 0.6888721 -0.06815264
0001e0 a5 91 ff be c8 5c 0f bf b9 bf 24 bf a5 de 34 3f
       -0.49915805 -0.5600095 -0.64355046 0.7065223
0001f0 6c d9 0b bf 04 bc e5 3d 9f 51 14 bf 06 4a f8 3e
       -0.54628634 0.11217502 -0.57937044 0.48493975
000200 5f 65 08 3f e8 40 13 3f 94 3f 14 bd f9 fd 12 3f
       0.5327968 0.57520914 -0.036193445 0.5741878
000210 6c c1 0d bf 4c 41 eb bd b0 96 27 3f ba ad bd be
       -0.55373263 -0.11487064 0.65464306 -0.37046605
000220 2d 80 33 3f a4 22 37 bd 24 05 31 bd 15 52 04 bf
       0.70117456 -0.04471077 -0.043217793 -0.5168775
000230 24 b0 20 3f 70 46 1a 3f 0b 59 e8 be 4f a9 ac be
       0.6276877 0.6026373 -0.45380434 -0.33722922
000240 08 d6 3d bd 8c ab 34 3f 43 d7 25 3f 1f ec 09 bf
       -0.046346694 0.7057426 0.6478159 -0.5387592
000250 b7 62 cb be dd 62 e9 be 04 19 2d bf a0 3b d8 bb
       -0.3972375 -0.4558324 -0.67616296 -0.0065989047
000260 7c 30 f5 be 0c f9 31 3d 6b 97 1f 3f c2 48 a2 bd
       -0.47888553 0.0434504 0.6234042 -0.07924034
000270 52 cd 29 3f 8a b9 ff be 60 69 86 bc 6e 2a e0 bd
       0.6632892 -0.49946243 -0.016407669 -0.10945593
000280 4a f5 0d bf e2 41 ee bd cd 41 df be 9d 7e ee be
       -0.55452406 -0.1163366 -0.4360489 -0.46580973
000290 14 ba e4 be d0 c8 a2 bd 4d 44 00 bf 9a 18 19 bf
       -0.44673216 -0.07948458 -0.5010422 -0.59803164
0002a0 74 ba 0d bf 24 58 2a bf 90 fe b9 bc 92 d9 0f bf
       -0.5536263 -0.6654074 -0.022704393 -0.5619136
0002b0 e7 7d dc be 54 51 26 bf a8 84 a8 bc a1 b5 d9 be
       -0.43064806 -0.64967847 -0.020571068 -0.42521384
0002c0 c8 93 0c 3f a0 f0 ca 3d 79 d7 05 3f 7a 17 f2 bd
       0.54912996 0.09909177 0.5228191 -0.11820884
0002d0 a0 cb f8 bd 46 49 e6 be fc 18 fb bd 4a 7b 0e 3f
       -0.121482134 -0.44977778 -0.12260625 0.55656874
0002e0 2e b1 05 bf dc 6f dd be f0 a3 c8 be d8 41 1c 3f
       -0.5222348 -0.43249404 -0.39187574 0.6103797
0002f0 0a 5d 27 bf f0 f7 0d 3f 25 4e ac be 3e d3 21 3f
       -0.6537634 0.5545645 -0.3365337 0.63212955
000300 b4 ff 2d bf 47 c2 1e bf 5a 4b 00 bf 96 ab 17 bf
       -0.67968297 -0.62015194 -0.5011498 -0.59246194
000310 4e 6c 37 bf a2 75 a3 bd 57 72 fc be 09 4b 05 bf
       -0.71649635 -0.07981421 -0.49305984 -0.5206762
000320 5a f2 36 bf ae 4c 9d 3d c2 84 c7 3d 38 94 2e bf
       -0.7146355 0.07680641 0.097421184 -0.68194914
000330 3b d0 16 bf 4b 0f fe be da 40 fe be 03 e9 25 bf
       -0.58911484 -0.49621043 -0.49658853 -0.6480867
000340 6d 98 fd be e4 f3 23 bf 1e ba 0c bf 8f ad 39 bf
       -0.49530354 -0.6404402 -0.5497149 -0.72530454
000350 73 a9 f9 be 35 c4 02 bf a1 63 17 bf 97 56 fa be
       -0.48762092 -0.5108064 -0.59136397 -0.48894188
000360 12 df 07 bf 76 62 c4 3d 37 64 1c bf 01 e5 1a bf
       -0.53074753 0.095890924 -0.61090416 -0.6050568
000370 ce 86 0b bf 29 61 14 bf 4c e9 03 bf e2 d3 f8 be
       -0.5450257 -0.57960755 -0.5152786 -0.48599154
000380 a5 7d 0a bf e8 de 09 bf 1d 6d 20 bf 3a 6e 2a bf
       -0.5409797 -0.5385575 -0.62666494 -0.6657444
000390 76 d2 38 bf 94 e2 29 bf a2 93 08 bf ac ca 26 bf
       -0.7219614 -0.66361356 -0.5335027 -0.65153
0003a0 01 f4 34 bf 9c ae 18 bf e8 3b 13 bf 4f 67 14 bf
       -0.7068482 -0.5964143 -0.57513285 -0.57970136
0003b0 59 48 35 bf 34 c8 f3 be 14 dd 39 bd 2a 75 25 bf
       -0.7081352 -0.4761368 -0.045376852 -0.64631903
0003c0 99 81 1f bf a2 55 06 bf 1d af 23 bf 58 3a ee bc
       -0.62307125 -0.52474415 -0.63939077 -0.029080555
0003d0 48 c0 24 bf 65 bc 18 bf e7 f6 10 bf ff 32 01 bf
       -0.643559 -0.5966247 -0.56626743 -0.5046844
0003e0 46 6f 10 bf 1c cc 28 bf 24 df 1f bf 26 9a 00 bf
       -0.5641979 -0.65936446 -0.6244986 -0.5023521
0003f0 c2 43 04 bf ea be 17 bf 3e 28 02 bf 74 c1 0d bf
       -0.5166589 -0.59275687 -0.50842655 -0.5537331

fc2.bias f4 [64]
000000 fc 24 35 bf f7 0b 0e bf 6b c9 04 bf df 5a fb be
       -0.7075956 -0.55487007 -0.5186984 -0.49092767
000010 b2 c7 f8 be 68 fe 1c bf bb ed ac be 6c e6 c0 be
       -0.48589855 -0.61325693 -0.33775124 -0.37675798
000020 a9 ff 2a bf cb b7 f3 be a3 6a 1f bf 9d 86 d0 be
       -0.66796356 -0.4760116 -0.6227209 -0.40727702
000030 46 91 02 bf 90 de 2b bf eb 65 2c bf 11 ee 2c bf
       -0.5100292 -0.6713648 -0.67343014 -0.6755076
000040 5b 39 0c bf 39 54 10 bf 75 cb e0 be 99 18 1f bf
       -0.5477502 -0.56378514 -0.43905225 -0.6214691
000050 29 f1 cb be 42 88 d5 be 25 7a 20 bf 95 21 83 be
       -0.39832428 -0.4170552 -0.6268638 -0.2561156
000060 1f 39 22 bf 50 df 32 bf 07 0a 2a bf 38 45 0d bf
       -0.6336841 -0.69872 -0.6642155 -0.55183744
000070 a1 2c 19 bf 46 e0 fb be a4 ed 12 bf 77 a9 06 bf
       -0.59833723 -0.49194545 -0.5739386 -0.5260233
000080 af 31 02 bf 5e 4d eb be d2 73 dd be 69 6c 93 be
       -0.5085706 -0.45957464 -0.43252426 -0.28793648
000090 50 58 c9 be 09 5f 18 bf 1c 86 8c 40 76 e3 81 be
       -0.3932519 -0.5952001 4.391371 -0.2536885
0000a0 fb e9 a2 be 40 94 0a bf 2a ad e9 be c2 5a 95 be
       -0.31819138 -0.5413246 -0.45639926 -0.29170805
0000b0 5c 58 38 bf 87 d2 06 bf 31 96 32 bf 11 2c ec be
       -0.72009826 -0.5266499 -0.69760424 -0.4612737
0000c0 3b 14 26 bf b8 ba 68 bd b4 41 0c bf 0a ce 01 bf
       -0.6487462 -0.056818694 -0.54787755 -0.50705016
0000d0 e7 ae 02 bf 2d 68 dd be 8b 2e 16 bf 7e 19 a8 be
       -0.5104813 -0.43243542 -0.5866477 -0.3283195
0000e0 ba 74 02 bf e7 d4 d6 be 7a e8 1c bf b2 46 cd be
       -0.5095936 -0.41959307 -0.6129223 -0.40093
0000f0 d5 c2 22 bf dd 79 2b bf ad c9 e1 be 07 22 c8 be
       -0.6357854 -0.66982824 -0.4409918 -0.3908846

fc5.weight f4 [1, 64]
000000 b5 4a 02 bf 7b 51 bd 3e 85 04 ae 3e c0 7a 00 bf
       -0.50895244 0.36976227 0.33987823 -0.501873
000010 9c a7 15 bf a4 33 0e bf a6 0e c6 3e b0 73 c8 3e
       -0.58458877 -0.5554755 0.3868305 0.39150763
000020 75 fb f9 be 2f 25 dd 3e 58 c8 02 bf 6b c4 cc 3e
       -0.4882466 0.4319243 -0.5108695 0.39993605
000030 a8 2d f6 be 04 2c f6 be 58 15 07 3f d0 79 fa be
       -0.48081708 -0.48080456 0.5276694 -0.4892106
000040 5f ad e7 3e 07 0d 0f bf 9e ea b5 3e cb 23 01 bf
       0.4524946 -0.55879253 0.3553056 -0.5044524
000050 d1 4a e5 3e 82 2b cc 3e 84 f3 12 bf b4 66 b0 3e
       0.44783643 0.39876944 -0.57402825 0.34453356
000060 b6 8f 18 bf 2a 1f 12 bf 2e 70 f6 3e cb a2 03 bf
       -0.59594285 -0.570788 0.4813246 -0.5142028
000070 cc d8 0a 3f c1 a0 13 bf 8c 4d f5 be ff 2b 0c bf
       0.54237056 -0.57667166 -0.47910726 -0.5475463
000080 e7 2d 03 bf c6 c3 c5 3e da b3 de 3e d0 76 b0 3e
       -0.51241916 0.38625926 0.4349659 0.34465647
000090 bb f6 e3 3e a7 28 ff be 19 1e 8f c0 12 f7 ae 3e
       0.44524178 -0.49835703 -4.472424 0.34172875
0000a0 6d 6e c3 3e bf b9 03 bf f6 0f bc 3e 93 e8 bc 3e
       0.38170186 -0.514553 0.36730927 0.3689619
0000b0 cf ac 09 bf 1c dc fe be c6 a0 17 bf 88 b8 ab 3e
       -0.5377931 -0.49777305 -0.59229696 0.33539224
0000c0 57 4b 17 bf 88 78 b6 bc e9 d1 bc 3e fc 59 03 bf
       -0.59099334 -0.02227427 0.368789 -0.5130918
0000d0 11 f2 e5 be c2 28 bb 3e ed 84 dd 3e b6 92 d1 3e
       -0.44911245 0.36554533 0.43265477 0.40932244
0000e0 72 cc d9 3e 5d a1 b3 3e a5 48 0d bf a8 9e c4 3e
       0.42538792 0.35084048 -0.5518897 0.38402295
0000f0 41 29 e3 3e de cf 08 bf 80 21 c9 3e f8 20 d6 3e
       0.44367412 -0.5344218 0.3928337 0.41822028
